Final working codes/feedforward_nn.pth (torch, 17193 bytes, 3 tensors)

layer1.bias f4 [64]
0	0xba6dfa5d	-0.00090781396
1	0x38a10247	7.6775024e-05
2	0x3a4228f6	0.00074066164
3	0x3b7c858a	0.0038531744
4	0x3aafa231	0.0013399777
5	0x3a83d481	0.0010057838
6	0x3aa9127b	0.0012899184
7	0xbaae594a	-0.0013301757
8	0x3a8f8cd2	0.0010952002
9	0xb9b26b06	-0.00034030544
10	0x3b395d91	0.002828453
11	0xbae352ad	-0.0017343365
12	0xb967d98b	-0.00022110918
13	0x3c1fbc53	0.00974949
14	0xbab21a23	-0.0013588112
15	0xb897dc67	-7.241294e-05
16	0x3acd50b3	0.0015664309
17	0xb95cbb46	-0.000210506
18	0x3aedafc5	0.0018134048
19	0x394b7f63	0.00019407044
20	0x3a007b8c	0.00049012224
21	0xbab4d2f2	-0.0013795777
22	0x39f83b9a	0.00047346653
23	0xbab452d3	-0.0013757594
24	0x39ec3f6f	0.0004506069
25	0x3b0ff9f5	0.0021969054
26	0xb9acc560	-0.00032953452
27	0x3acd32ed	0.0015655436
28	0xbabd73ad	-0.001445403
29	0x3a504dda	0.0007946171
30	0x3a0d9890	0.0005401457
31	0x3ac76af8	0.0015214374
32	0x3b127ae1	0.0022351074
33	0xba7a4512	-0.00095470354
34	0x3aa0abb5	0.0012258204
35	0x3a99076f	0.0011675189
36	0x3afc7329	0.0019260395
37	0x3b2f29af	0.0026727726
38	0x3a957e2b	0.0011405399
39	0xbaf141f0	-0.0018406492
40	0x3aae2281	0.001328543
41	0xbb3b05e5	-0.002853745
42	0x39a2d838	0.00031060143
43	0x3ad504e7	0.0016252071
44	0x3a854c4e	0.0010169835
45	0x396c0ec7	0.00022512219
46	0xba49237f	-0.0007672831
47	0x3bae6244	0.005321773
48	0xb8b1f0da	-8.48488e-05
49	0x3ac61082	0.0015111121
50	0x3aee4a10	0.0018180031
51	0x3b8ee963	0.004361318
52	0xba18fb7a	-0.0005835813
53	0xbbea0845	-0.007142099
54	0x3a382e0b	0.0007025904
55	0xba80629e	-0.0009795015
56	0x3a65ada2	0.000876153
57	0x3a07f296	0.00051859894
58	0xba0c0e2a	-0.0005342687
59	0x3a44da32	0.000750932
60	0xba6d97ae	-0.00090634346
61	0xb90e76e6	-0.00013586468
62	0xb93d5f9a	-0.00018060059
63	0x3abc9884	0.0014388715

layer2.bias f4 [32]
0	0xba8d5d1a	-0.0010785193
1	0x3b8f3229	0.004369993
2	0xba1fc777	-0.0006095091
3	0x3a7021b2	0.00091602944
4	0xbadbb042	-0.0016760903
5	0x3c2cefb4	0.010555197
6	0x3b1ca8c7	0.002390431
7	0x3a3c73ad	0.0007188868
8	0xb848632f	-4.7776088e-05
9	0x39148656	0.00014164424
10	0xba62905c	-0.0008642727
11	0x3983c043	0.00025129513
12	0x3a549e97	0.000811079
13	0x3a81b982	0.0009897205
14	0xb9a8c257	-0.00032188251
15	0x3c209992	0.009802239
16	0xb994d32c	-0.00028386095
17	0x3b08ed96	0.0020893565
18	0xba9b52ec	-0.0011850274
19	0x39e13578	0.00042955182
20	0x3a1e597b	0.00060405553
21	0x39b9c20d	0.0003543053
22	0xba289e40	-0.00064322725
23	0x3a32242f	0.0006795553
24	0x3b5bc899	0.0033536314
25	0x3b09738d	0.0020973415
26	0xba082d35	-0.00051947247
27	0xba736316	-0.00092844793
28	0xba28b8fb	-0.00064362556
29	0x3a76e6dc	0.0009418556
30	0x3bce6acd	0.0062993527
31	0x3b7f647b	0.0038969803

layer3.bias f4 [3]
0	0x3d50225d	0.05081402
1	0xbeb956dd	-0.36199084
2	0x3e9f5292	0.31117684
